lstm_model.npz (npz, 165074 bytes, 11 tensors)

test_err f8 []
00000000: f73c 5989 2a63 b23f
0.07182565549122787

b f8 [1]
00000000: 60c1 7b17 b6da b73f
0.09318101952863378

lstm_b f8 [200]
00000000: 998e 81b2 d4e4 dabf b73c 0a08 324a c23f
00000010: 3014 9be0 f85f d8bf 8a40 0aae ede6 d2bf
00000020: 3522 9934 9dd1 ddbf 2f98 360c b8ab fa3f
00000030: a806 f6b0 06e6 d2bf 6a1e 9f06 fc57 d4bf
00000040: 5388 1778 99fb c0bf 6cd0 f9af 5265 e0bf
00000050: a987 6620 cab2 adbf 3f0f 151d ba5b d03f
00000060: 12a4 3dc6 f8c2 bcbf 53b9 40ad c066 d8bf
00000070: c887 715d f560 c73f 0e4d c9fd 2268 cebf
00000080: 0334 24e2 0870 c0bf 1dd9 da66 bfda dabf
00000090: 2449 85d1 5af2 bebf c6f4 1d99 9bf1 d1bf
000000a0: 395d c476 0c35 d4bf 1313 a762 7dfa cbbf
000000b0: 8043 a574 cba7 c13f 6772 46db 29a9 aa3f
000000c0: 5ae7 0e07 fa52 c7bf 5273 cf60 9970 d3bf
000000d0: 8993 1acd aedc d5bf ab2e 8b35 f06c d4bf
000000e0: 44b6 2d9f 5ff5 d3bf 2f61 d1e5 929f 7e3f
000000f0: cea2 9afe c813 e2bf 1cf9 4679 46a5 adbf
00000100: 87d9 dff0 60e3 b2bf 49fe 5f31 7ace d0bf
00000110: 84b9 fa58 2360 d73f fa06 7a04 d631 ddbf
00000120: 68b2 0135 ed42 d0bf 8440 adf9 8fc6 babf
00000130: 9f5d 361d e553 d7bf 64d6 50a2 9c63 cdbf
00000140: 0e02 b604 d621 d63f 0e75 8367 42cc d5bf
00000150: 5b4a af6c 012d d0bf 2ce3 f697 0519 d0bf
00000160: ff9b fc06 669f c53f 9001 78e5 85f8 c9bf
00000170: be69 d8bb 1924 d8bf c601 abd2 7e20 d5bf
00000180: 5df7 0572 6c3e c13f ebb0 1e00 296a d7bf
00000190: e841 267e dec4 dabf d7ac 15fa e299 b03f
000001a0: 93e5 d55f 9933 d8bf c86f 3b1b cc08 d0bf
000001b0: 964b 8926 98c1 d6bf a414 498b 9ca5 e23f
000001c0: 4a12 9ef6 70ab d4bf 5c71 e108 22fc c7bf
000001d0: 7826 d9be 4021 d1bf 889d fbe7 b684 dcbf
000001e0: a556 e13a cffe 78bf 65a9 3298 c86e b73f
000001f0: 4917 ec4c 0fbe c6bf c71b 9f33 316b c0bf
00000200: 6198 a4f3 d578 b13f a114 b862 09dc c1bf
00000210: c7d3 f6c7 c2a5 ad3f dc73 16f0 bd56 d4bf
00000220: 260f 2b54 8eff d2bf 31b6 38fa f738 c5bf
00000230: 79b3 ad3c 6781 c9bf 475d 8d5b 07cf d2bf
00000240: 530f eaef 101b bb3f dbad 662a f7e0 b43f
00000250: 2237 ccfd 812e c0bf cce1 b3b3 9dae a3bf
00000260: d8a7 8c01 0f99 d9bf 6e72 e40a 91af d2bf
00000270: ecd6 1ca2 d378 c7bf efb6 c324 6a31 b13f
00000280: 8d0e d879 9755 ddbf ada6 c99c 7169 72bf
00000290: ebd5 52f2 5609 b2bf 330b 4ef1 cee8 d4bf
000002a0: 6420 44f4 66d8 ce3f 79c7 a3d5 0955 dabf
000002b0: 5874 5f60 0a6b c1bf 4e77 88e0 477a b1bf
000002c0: 31a7 590d 18d9 dabf a0ae b10c 2ad1 babf
000002d0: 9352 d077 656d c93f 7f91 b5fc 94fd d1bf
000002e0: 9950 f169 cb06 d1bf f7ea b82b a8f7 dabf
000002f0: bf78 98d3 1df7 b33f 82f4 41e3 b582 cbbf
00000300: 47b4 f949 f4bd cebf 2bf7 85d0 a0c2 d5bf
00000310: 7c80 bb4e b6b9 c43f 2ca5 0ef1 fc1d d3bf
00000320: 7ef6 21b7 1b00 dbbf 75ac 26fc 39c4 b83f
00000330: 81b0 1f26 8191 d9bf 5057 7ab7 7197 d6bf
00000340: 4ce1 4f71 3011 dfbf b526 9adb bb68 f83f
00000350: a4f9 3c72 0fc3 d4bf 0f1c cec9 59d4 d5bf
00000360: 7134 0bbe 7f4c dcbf 33f6 7f67 bf35 e0bf
00000370: ae86 6c49 a959 babf 9a02 8e3f e7b7 aebf
00000380: ca26 a8f4 6222 c4bf dd69 7524 77fe dabf
00000390: 9035 66ca dcf0 b63f 3f51 1a34 ab27 d0bf
000003a0: 0f22 de8e 95bc a5bf ecfa 8582 5558 dabf
000003b0: 26f9 3d0b 0657 c8bf 7387 1215 6aca d5bf
000003c0: c373 0b1a a82d d5bf c06d 52c1 550d d0bf
000003d0: 9530 fec1 2810 a93f e420 d14d a739 a6bf
000003e0: 1d20 abde ef3c d4bf 4ad5 0e56 d704 d8bf
000003f0: ea5c 0d2a 32f6 d6bf 1d13 3391 bc9d d3bf
00000400: e993 8208 b65d d6bf a2fc 2c05 8737 afbf
00000410: aaff 7272 c2d4 e1bf b6aa 49d4 4dc7 b2bf
00000420: cd8c f181 cb3b c1bf 01c9 546c b7b9 d1bf
00000430: 21f1 b1b3 59f7 b0bf 1e04 04d0 791b ddbf
00000440: 5284 1904 d4f5 cfbf bb45 006c 4dbf cabf
00000450: a490 46a4 a2b1 d8bf 3012 c3d6 c157 d9bf
00000460: 861a 9279 3713 c53f a5ad d2dd ee06 d7bf
00000470: 8b54 2063 4b8e cdbf 73f9 f66d fb3f d1bf
00000480: f2a0 8bb0 b6ca ba3f 4583 f6c1 5658 d0bf
00000490: f3bd 4cd2 551e d7bf e2fb bed4 424d d4bf
000004a0: dbe2 c02a 054e 56bf 0221 f0a8 de30 d8bf
000004b0: cbbe d270 0d6c 9ebf 2572 6bcb 407c 9f3f
000004c0: 80fc 3dd3 6b5c a13f 63b3 ac77 d5ed 92bf
000004d0: a422 6c86 2db9 63bf 0edd 77a7 5fac ab3f
000004e0: 5531 21ec a3c8 89bf 0297 c135 6a07 ae3f
000004f0: b5e1 5b51 3a63 7fbf 0028 30d4 31be a43f
00000500: 8ad0 dc7b 07c3 c13f f57c 73f5 2860 9e3f
00000510: 705e a00b 8c62 c1bf e15a 37e4 02ab 8abf
00000520: 7169 b485 6668 bb3f 5f9c 2e3f 9fe5 80bf
00000530: 337e 3a70 01bc c23f 500a 76da c82b abbf
00000540: 40f4 3ad5 ae96 a53f 355c d2e0 7763 833f
00000550: 43a3 1302 754f b9bf d10a 52d6 9ed0 9bbf
00000560: 9db6 0ac1 6347 abbf 59df 89f8 5a29 a2bf
00000570: 1dab 68f3 1b1f 95bf 5010 fb39 c900 b03f
00000580: 072d 8641 fda8 733f 0452 33a2 13d2 853f
00000590: dcad ceca d25c 90bf cd38 5232 7495 a33f
000005a0: 201b c49d 1524 05bf f414 b6b0 c8ee 94bf
000005b0: 9a1d fdd9 765c a6bf 1760 1cc9 a2e0 a33f
000005c0: b3a4 5715 c812 a7bf c88d 48ef 291a 6fbf
000005d0: 0ad9 bf12 8c2f a73f d8e0 f238 7e80 ab3f
000005e0: 85e1 8458 fded 83bf a6ed ab4b ff7d 6bbf
000005f0: 85b9 ca54 7da7 b9bf 7d0d 4906 8911 923f
00000600: 5a8a 6de5 a082 6ebf 6cbb 8af6 2bce bb3f
00000610: 6461 22ca 944c bb3f 6a24 5522 fdc4 78bf
00000620: fd4b 31c2 5af9 5cbf e95a ad22 c7a6 9e3f
00000630: 9cff 19c2 46fe b8bf 07a2 c1c3 3af2 92bf
-0.4202167266105135 0.14288926498963914 -0.3808576768317975 -0.295344753228172 -0.4659188283590397 1.6669235684471564 -0.2952896812567851 -0.3178701462424899
-0.13267820705283614 -0.5123685299900109 -0.058004681067600324 0.25559857215943177 -0.11235003318655881 -0.38127152365895717 0.18264643728895025 -0.2375529994193148
-0.12841902772962052 -0.41960129780217575 -0.12088554015398195 -0.2803715701373445 -0.31573783491463164 -0.21858184163115676 0.137933189349976 0.05207186509799016
-0.1822197470153764 -0.3037475057042701 -0.3415944102255755 -0.3191490672004231 -0.3118514112928532 0.00747640020298261 -0.5649151776061332 -0.05790157537875215
-0.07378202324603055 -0.26260237523817814 0.36524280251878616 -0.4561667484014006 -0.2540848748820168 -0.10459232183097994 -0.3644955430295002 -0.22960241246771596
0.3458151861196094 -0.34059200390568456 -0.2527469216703701 -0.25152721252702537 0.16892695752287065 -0.20289682106523488 -0.3772034010341051 -0.33010836194082704
0.1347175175432608 -0.3658545018358967 -0.4182659370353847 0.06484812360365609 -0.37814936026514906 -0.2505369440020755 -0.3555660606700085 0.582716247598587
-0.3229639442800233 -0.1873819869387131 -0.26765459668658975 -0.44560024885728255 -0.0061023802682790606 0.09153417316216446 -0.17767516380279805 -0.12827124615270533
0.06825005720438206 -0.13952748604075274 0.05790528002709255 -0.3177943081480501 -0.29684789866972705 -0.16580104558799882 -0.19926157439058637 -0.29388603153843856
0.10588174683840394 0.08155770096953267 -0.12641930477587332 -0.03844158953319585 -0.39996695662796133 -0.2919657331820308 -0.18337483802468257 0.06716025731631324
-0.45834910296273607 -0.004495090292587695 -0.0704550115213675 -0.3267094952099569 0.2409790699678097 -0.41144033301599553 -0.13607911782938475 -0.06827210647358337
-0.41950036338549795 -0.10475409326471175 0.19865101194649934 -0.2811024158347876 -0.2660397085758262 -0.4213657786346369 0.07798944869907397 -0.21492646786274255
-0.24017194377975867 -0.3400041614876154 0.1619174847064676 -0.298705325515203 -0.42188160785722306 0.09674417882949789 -0.39950588915849755 -0.35299342077029383
-0.4854241472780998 1.5255697801789385 -0.32440553814003636 -0.3410858603241999 -0.4421691280265981 -0.5065609952432112 -0.10293062250687043 -0.05999682093443433
-0.1572993940938459 -0.4217813354531737 0.08961276952159936 -0.2524211891952923 -0.04245440834990088 -0.41164148088857533 -0.19015574978761512 -0.3404793935570673
-0.33091166060858884 -0.25081390265560444 0.04895140998914475 -0.0434086115352004 -0.31621929879156757 -0.375295480767211 -0.3587766085306173 -0.30650247745170295
-0.34946966963826626 -0.06097051561527535 -0.557221625836964 -0.07335363800818126 -0.13463729710483677 -0.2769602353975103 -0.06627426755034495 -0.45480199159652723
-0.24968958091906984 -0.2089630868290849 -0.3858419994596807 -0.3959812733922119 0.16464894710607697 -0.35979816114805835 -0.23090498294974213 -0.2695301603197528
0.10465566454115896 -0.2553917783898679 -0.36122651612365003 -0.31721564079265197 -0.001361374898818982 -0.37798277376033707 -0.029709062586958972 0.030747425475839436
0.03390824273719151 -0.018485389165266663 -0.0024076356088510043 0.05404948157586818 -0.01258972229347736 0.058650321065938385 -0.007662990383089531 0.04051356997668165
0.13876431987739962 0.029663696271083635 -0.1358199173707706 -0.01302149065933861 0.10706177486682635 -0.00825046931806933 0.14636247615725181 -0.05306842486153995
0.04216524460705573 0.009467064426912678 -0.09886866856289793 -0.02716301138981231 -0.053279034914664104 -0.03547176631849309 -0.020626484614847052 0.06251199403328767
0.004799832612103267 0.010654595744576952 -0.015979093197229108 0.038249617712709495 -4.032317130691341e-05 -0.02044213846740646 -0.04367419634814525 0.03882321076361011
-0.04506516705061738 -0.0037966555630803735 0.0452846310508211 0.053714699222327134 -0.009731272949111478 -0.003355978607371762 -0.10021193809618552 0.017645016678455406
-0.0037243978980979033 0.1086146809491148 0.1066372865192356 -0.00604723816406603 -0.0017684351266964431 0.029933082095648187 -0.09762994993979962 -0.0185021574001514

history_errs f8 [17, 2]
00000000: 5238 9a20 958d 1040 ebec f982 87ad 0d40
00000010: 7575 b710 fe01 1140 374c c497 b133 0e40
00000020: 058c f620 1f1b 0e40 75b4 c76b 4402 0b40
00000030: 05f7 6afc 67b9 0c40 00e5 d9ca e21a 0d40
00000040: f9ac 15c2 3c14 d63f 9f4f ad37 dd78 d33f
00000050: 5188 096b bae1 e93f 34c3 3ee5 219b e93f
00000060: ab30 49e9 b9e9 ce3f fbc2 5923 9fca cc3f
00000070: 0815 a355 6962 c03f b239 38da 7460 bf3f
00000080: 6e9c 1fe4 579d c13f 114b 343d 3640 c23f
00000090: 3636 12be c218 f23f 6d5b 304c 229a f03f
000000a0: 5df2 8237 9de6 f93f 1e79 6dda 8a14 f93f
000000b0: 1fe6 8e51 f998 ef3f e8c3 09a8 6871 f03f
000000c0: 6453 5ec7 7ae1 fc3f b964 bc69 f4aa fc3f
000000d0: 250a a5de 2880 d43f adf9 8394 9e5d d43f
000000e0: 0951 face a709 ca3f 5cf0 0453 c05e c73f
000000f0: 86da fa2b 86a3 cb3f c9b4 b916 80f0 cb3f
00000100: cfa9 a198 7ccd b23f f73c 5989 2a63 b23f
4.138264188206522 3.7097311241646955 4.251945744702756 3.7752410752086933 3.763242967151657 3.376107065231333 3.590530368818579 3.6381278846498617
0.3449851889951812 0.30425196110922487 0.8088047113963147 0.8001870610661173 0.24150775805390387 0.2249335215197091 0.12800327950950696 0.12256555869701094
0.1376142372020896 0.1425845908020951 1.1310450958875555 1.0376303650025094 1.618802277414168 1.5675152332619926 0.9874235718663761 1.0276876987447796
1.8050487315969912 1.79173699668017 0.3203222440971863 0.3182140779826124 0.2034196625360283 0.1825790791862144 0.2159278597589102 0.21827698812140842
0.07344797827105441 0.07182565549122787

U f8 [50, 1]
00000000: 3c98 4cbe 43b1 5dbf a776 3d77 8bae 77bf
00000010: 3eef 5752 4e5d 36bf 8cfa c046 6c4a 7abf
00000020: c1d5 6921 d61c 863f 1c48 ac37 bba2 c83f
00000030: 9295 9909 5171 8fbf 3333 cfbd c98a 95bf
00000040: 82cf 6e82 fb36 8b3f cae5 388e d0be 80bf
00000050: 9455 1243 ebfb 7a3f 0488 caa9 957a 6d3f
00000060: df73 afc2 5b78 91bf 52bd 2d36 c0ba 953f
00000070: 955f bc30 d81d 91bf 348d 9e55 3d9d 8abf
00000080: 53bc ae4d cc40 b43f ea4f 6d95 6cc9 513f
00000090: ebba e7ce 1977 79bf 39f3 7313 7eb9 86bf
000000a0: 7187 8abd 3916 9d3f e2b0 24c3 f0e0 96bf
000000b0: f9dd e75c 889e 953f 12eb f367 b595 98bf
000000c0: 57f0 ef6a b23b 823f fb7f db47 f99e 8cbf
000000d0: 699a f9ef 3698 843f 660f 30c7 27e1 213f
000000e0: 3e48 eacb dc80 85bf 9da6 8191 9313 a23f
000000f0: 95fa ddb6 8419 713f 4541 10c9 5b77 943f
00000100: 6a18 ac56 fd64 8c3f ac80 d258 c2fe fe3e
00000110: 550b bb58 5c4f 763f 3aed 983a ca99 753f
00000120: 572c 5936 6df9 92bf 4a36 ebb4 e352 99bf
00000130: c8b7 f1a9 89e4 76bf 56af 5a99 2a44 943f
00000140: 19a2 ae61 43f6 8f3f e009 6440 0476 6b3f
00000150: fa9f 592e 4c5e 7fbf ecc8 26f7 1062 723f
00000160: 3cf1 7347 69c6 88bf edfc 8a4d 4151 7cbf
00000170: 22a7 451c 1abc 973f ae1e aa53 ad94 54bf
00000180: d286 2269 1fa2 853f ed39 b362 a2e4 86bf
-0.0018122827106679248 -0.0057816932565778805 -0.0003412548270202881 -0.006418631510369931 0.01079718865842494 0.19246616571814534 -0.015352852921931146 -0.02103724690441595
0.013288464467997366 -0.00817645010021097 0.006587904922658611 0.0035984919653211395 -0.017060693509723165 0.021220210367969124 -0.016715410208319865 -0.01299522321261879
0.07911373993441488 0.001085620917099734 -0.006217099011776676 -0.011095986336380302 0.028405096238777575 -0.022342454825022957 0.021112566633716388 -0.024008593053603873
0.008902925384966105 -0.013975093369879224 0.010055951307731808 0.0001364098603461275 -0.010499691937443708 0.03530560637666478 0.004174726882296161 0.01998656668371381
0.013864497382666669 2.955928134851296e-05 0.005446778038904328 0.005273618656754403 -0.018529612009200083 -0.02473026077023225 -0.0055890443319252595 0.019791284189224122
0.015606428545496919 0.0033521731412531203 -0.007658288557287557 0.004488054534180313 -0.01209718941981263 -0.0069134283918963315 0.023178489661780273 -0.001256150497882229
0.010563130756341552 -0.011178272854889005

train_err f8 []
00000000: 6b8d 547d c2e1 b23f
0.07375732002087936

b_input f8 [50]
00000000: 2074 f088 13b0 cabf 8dd4 837a 5318 9a3f
00000010: e63e 17db c806 d03f eaee 1dd1 1a2f c7bf
00000020: c88f 57de c1e1 cdbf 4c70 846c 5393 cb3f
00000030: 4135 fff9 dd99 a0bf 3206 2a8d db62 bebf
00000040: d492 b732 f9fe a93f e947 2fae f995 b93f
00000050: 3aa4 3f8c 5248 723f 7b7c 2d39 7485 a1bf
00000060: 8d60 b41a e3a9 a53f e39a 836e a099 d3bf
00000070: fb2d 0918 0970 ca3f aa7d 3d93 b9dc c4bf
00000080: a9da 5cda 0cd6 cbbf 87db 7444 9bcb c43f
00000090: 358c 2b19 e651 cc3f fac4 e1f2 9cfd ce3f
000000a0: 7250 aee7 cbce ca3f fc55 f388 16b1 d23f
000000b0: b086 0a85 242b abbf 3783 417e 1e73 a83f
000000c0: 91b2 4b91 0c61 b4bf c15e c633 c616 a0bf
000000d0: 7f1b b370 179a c2bf 06c0 1000 3bc0 c43f
000000e0: fc66 dc5a d175 bbbf e4ea 5046 643f 813f
000000f0: b3e3 a0b4 6c71 953f d699 d648 80d0 a23f
00000100: 7293 ee65 4bb2 c13f 2e96 a44b 3d6f 9e3f
00000110: 723b f0ff e060 8ebf c81e 3b88 1eb9 a33f
00000120: f971 c6e2 9e6c d0bf ed94 c3af 2013 bd3f
00000130: 9819 58a1 bb49 a93f beb2 afc8 f739 a43f
00000140: 50d3 44fc 70cf c33f 236b d7b6 fa15 cbbf
00000150: 34d9 7910 eadb c3bf 98a4 0755 7aef 77bf
00000160: 6d98 7dd7 4b79 c8bf 740b 7036 d3e2 bbbf
00000170: 8bef d02b 8be3 c9bf f056 321e d02b c63f
00000180: cc4b 4459 a301 8b3f 48d8 01a9 3f6c d03f
-0.2084984224938191 0.025483421662063455 0.2504140986975315 -0.18112502299106065 -0.2334520660070878 0.21543352888773126 -0.03242391277999924 -0.11869594761267235
0.05077341789345771 0.0999446916823953 0.004463503315471457 -0.03422129819841132 0.042311760911787656 -0.30625162880316575 0.20654405282617447 -0.16298598947012738
-0.21746979391328594 0.16246357767678551 0.22124935368546664 0.24211465701549867 0.20943592846436193 0.29205859541011114 -0.05306352733647424 0.04775328913888759
-0.07960585162408963 -0.03142375356690997 -0.14532750132476832 0.16211640837855174 -0.1072665068462832 0.008421691318394271 0.02094049313038555 0.036746987239258
0.13825361706872347 0.029721219770314437 -0.014833219347591717 0.03852172291732142 -0.25662967821133936 0.11357311526406351 0.049390662617997794 0.03950476002487367
0.15476810758414183 -0.21160825660521096 -0.15514875225535152 -0.005843618259384752 -0.1912016679954748 -0.10892982558293146 -0.20225658072910976 0.17321206545300738
0.013186718141275387 0.25660697464571003

valid_err f8 []
00000000: cfa9 a198 7ccd b23f
0.07344797827105441

U_input f8 [1, 50]
00000000: e64a 2a44 ca65 a53f 176c 9f3f ed9b 87bf
00000010: fa94 6360 b5bf 99bf ef88 31c6 bc44 a13f
00000020: 812d d121 d869 ac3f 5c72 52d0 8acd aabf
00000030: f2e6 4be2 0c14 b33f 8e16 f1b3 a2b9 a33f
00000040: 74ff 785f 4553 9c3f fc07 9761 7258 763f
00000050: 9a3f 2d55 2eb4 903f fcc2 f58f 8798 873f
00000060: c096 24de 648e b33f dc25 a3e7 1795 b33f
00000070: 800f d7d0 551f 86bf fa35 83c0 ce6c a13f
00000080: 5bfd f790 876a aa3f 41d0 0a62 7de1 a7bf
00000090: 314a fe03 1324 b5bf 0b76 1530 90c5 95bf
000000a0: 5a41 66df 0466 9bbf ee7c 2e2d 12ed b2bf
000000b0: a787 a21d 0402 a5bf 2f60 fb1e b940 983f
000000c0: 7ea4 b1c2 aac2 903f e428 c1b6 af35 6c3f
000000d0: 77bc d943 aded 973f 2b60 cfc8 47b3 abbf
000000e0: 7fa7 2399 85c3 963f 663d 395f 9f89 573f
000000f0: 552a f63d e786 a83f 2e96 404c cbdb 83bf
00000100: e7b5 95f8 3696 9cbf 4d90 0267 953e a63f
00000110: b5a2 106a ad26 97bf 6f15 9bc7 4834 89bf
00000120: 4787 4d02 4154 b23f f93f 97fd 2c73 9fbf
00000130: 6240 db81 7342 893f 98f7 af1e 55b4 7bbf
00000140: 7927 36b0 dd70 91bf 72f0 338b 04cb aabf
00000150: 22dc 7baa de65 a93f e6b5 6715 45ff 7dbf
00000160: fdfb d516 f9ec a53f 3e9a 78dc 1dbd a43f
00000170: 975c b752 85a4 ab3f a579 a42c a5ca a1bf
00000180: d4c9 b43b e7ff abbf 2882 8cf9 c273 b0bf
0.041792221852252884 -0.011527875427352936 -0.02514537239848822 0.03372754973749347 0.05549502766424564 -0.05234941285127512 0.07452469372574536 0.03852566191248484
0.027661403610408766 0.005455443193058681 0.0163123359191669 0.011521395760355706 0.07639151023303281 0.07649373440940316 -0.010801954685014215 0.03403326129919644
0.05159400601041383 -0.04664222547344866 -0.0825816998242679 -0.021261456427387453 -0.026756359229297068 -0.07392991641107802 -0.04103100644830642 0.02368439914320691
0.01636759579961166 0.0034435684120000965 0.02336760260226042 -0.05410217596335117 0.02223023173511462 0.0014366203657976916 0.047904230416936734 -0.009696567787680879
-0.027916773722088364 0.04344622499891724 -0.022608480070774834 -0.012306755630002468 0.07159811311933338 -0.03071279809756786 0.01233377685585441 -0.006763775348188526
-0.0170321120072354 -0.052330152504482266 0.04960532981015599 -0.007323522432199669 0.04282358554609542 0.040505345499969966 0.05398956904144219 -0.03474918527557528
-0.05468676189265734 -0.06426638214589586

lstm_U f8 [50, 200]
00000000: daa6 18ba c143 b6bf 30d4 8bfc 2442 c0bf
00000010: 51ab 5fca 2206 c23f c89f f99c fc3e b4bf
00000020: 23da b3e5 7ae8 c53f 9ec2 428d cb53 85bf
00000030: e2d9 ebb6 1082 af3f 8f92 b828 1ca4 b1bf
00000040: aa98 c45f 9f05 c8bf 9363 667d 840e 813f
00000050: 39d2 f8d9 f166 c33f 2e37 f652 2fcc d03f
00000060: 9b93 e54e f396 a83f bc7c 1c95 1273 dc3f
00000070: 02a5 c19d ebb4 babf 9cdc 4fad 3aec 8dbf
00000080: 723d c9e8 0b15 cfbf b3e6 55ec d199 a63f
00000090: 200e b205 215f c7bf dd9b 1f8e b0b4 a9bf
000000a0: 9399 471e d356 c83f ffde 251c ecf7 a33f
000000b0: 3ee0 d777 3278 c13f 416f 8ed4 7e82 c43f
000000c0: a315 2bae 0efe c33f 782f fb22 132c 9a3f
000000d0: 0f12 fefc 7b65 ba3f 11de 9db9 5fca af3f
000000e0: fa34 c6be 6fd0 cb3f c723 ebcd 711f b13f
000000f0: b2a0 716b ec82 64bf 6fdf ddd6 facf b53f
00000100: 433f a807 c08e 69bf 4021 82c8 6cd8 b73f
00000110: 0e59 89e1 78b5 d13f ab3f a65f 75ba d23f
00000120: 19a1 65dc 005f b03f 89f5 de74 482a 913f
00000130: 83e3 dbb3 e116 a9bf 0660 11eb 5419 cfbf
00000140: 9108 235c 24ec d03f 3c72 323d 90a3 c03f
00000150: c598 aba8 1ef1 b53f 2d09 55a2 0dc8 a83f
00000160: 34dd d916 b399 bcbf aeff 09f0 a922 ad3f
00000170: 353b 6805 6691 cabf 4170 a17e d824 c9bf
00000180: d672 b83e 8bc5 8c3f c8cd 7674 4ed6 c6bf
00000190: 8554 533f ecc8 aabf fdad ccfb 26d5 c53f
000001a0: f568 935e 7625 a53f 03ce b96d 62d8 a03f
000001b0: 6a96 d940 baa3 c53f bb40 5f97 6880 6ebf
000001c0: ea99 ea22 5ab2 903f db8e 3cfe db57 b3bf
000001d0: 4144 4bd4 09b9 b03f 8c83 f5a7 5e73 ce3f
000001e0: f072 adca af5e c03f a848 265c 9b47 8abf
000001f0: ce6a 67a7 27c0 96bf 4d0c cafe 889f b33f
00000200: fffa 908b fbbd c6bf 0225 3dc8 282a 8e3f
00000210: 9b89 5327 3e0e bd3f 3284 4d27 ed59 9cbf
00000220: 1970 fd8b a76c c2bf 0cb5 70a2 a87d 98bf
00000230: 407f 0a91 ea68 b93f b601 69f2 5f8a b4bf
00000240: 272d dd7e 0151 c23f ddd1 15ad 7577 80bf
00000250: dd97 8c1d 0ee7 b43f 2ee2 96bb bcbc db3f
00000260: 3c85 b624 0981 b83f a462 0f3e cd94 c93f
00000270: f1d2 7d03 437f ce3f 55a7 1692 b474 c03f
00000280: f580 e2e6 0cef acbf 7857 dafc 5367 d2bf
00000290: f9fd 9d2f f4eb be3f 849c 332e 15c2 c3bf
000002a0: 5282 b856 42bc c73f f47f 1e85 8dfc cb3f
000002b0: 5efb 95a6 a783 c73f 2587 e964 46d5 a83f
000002c0: cf1d 95d4 0dbd 9dbf 8ceb 7e9b 4ed2 c2bf
000002d0: 2d91 8905 b9ce 873f d380 af3e 5d54 d33f
000002e0: 17f2 8d88 f968 c93f a2b0 5755 cdff c23f
000002f0: b22a f801 9d5f a0bf 87dd dfd2 2dbe c6bf
00000300: d294 5dc3 fd42 c8bf 1410 56c0 6784 a9bf
00000310: 4cf1 de06 1e8b d63f 65d2 5dbf 5651 a7bf
00000320: 6305 612d be4d d13f 91a9 682f fed3 8f3f
00000330: 4dc5 e5a3 09aa 8f3f f5bd 16cb 2cf3 b4bf
00000340: c72d 7879 0223 bbbf f044 9dd7 2951 b0bf
00000350: f3b5 5572 b339 93bf 9e99 7228 47cd ba3f
00000360: 419a 79cd 9a04 ccbf 9f84 6566 3410 a8bf
00000370: 6166 3338 5da7 a5bf bb54 92a9 9b2f c73f
00000380: a829 3021 c000 bfbf ad7d 42ba d1ec c73f
00000390: 7b04 42c4 47ca aa3f 40df aa14 bc2c 9ebf
000003a0: 7543 3bea ca8f a03f bfc7 f2f8 47a2 a1bf
000003b0: 2f5f 62f9 bb53 3b3f 789f 2b32 747c a9bf
000003c0: 1efd b058 f045 a1bf ca4d fb14 ea6d aa3f
000003d0: 300e c760 a033 c03f d8bb 3f20 8cbd ad3f
000003e0: 7f57 019b 4abc 91bf 9bed c3c4 a16b c83f
000003f0: a6e7 763b a46d adbf c217 b921 cd39 703f
00000400: a836 fa2a 0bb6 c8bf 8df7 4b88 4ce0 44bf
00000410: da0f 61fa 7987 bebf e450 13e8 b243 b63f
00000420: 6f50 7251 8b5d d8bf aaab 1a58 dbbf b03f
00000430: 5120 6480 acc1 d03f 429c 3b0a 2c2f b23f
00000440: 2e7d 513e 1534 b93f 1d73 9f68 234b dc3f
00000450: 88df 8efd 0f90 bf3f d191 f2c7 152c a8bf
00000460: 0984 280b 60e6 d03f f940 4fe2 d46e d7bf
00000470: 8ca8 c783 4cfb b23f 4522 1240 6792 833f
00000480: 591f e2f9 edb8 9d3f 4e50 3379 05ff c9bf
00000490: ae08 021e a2a3 77bf 0b38 c410 665e a4bf
000004a0: f3cc 6a05 125f bcbf ec7d cda5 e934 c5bf
000004b0: 07e4 b0a8 cbcb d9bf ce86 170c 9571 b43f
000004c0: b933 aeb2 4a9b 9b3f 16f2 23aa c9cd 92bf
000004d0: ccc0 05f0 a41e c4bf 194a 116c f65a b9bf
000004e0: 4fdd 3b90 1627 e13f c3fc 6184 f0c7 b1bf
000004f0: c978 4aa3 0c6f bf3f 3ef5 1753 1292 bc3f
00000500: 089e a26b dd65 ac3f 636c b352 8002 c73f
00000510: 8a18 7d51 fa68 b03f 7454 f430 8eb7 a73f
00000520: 94af 9100 2be5 cf3f fe0f 2c5d 689c a1bf
00000530: 2253 2997 6c92 c1bf 606e 1b95 87a5 b5bf
00000540: 09a2 d870 311f d4bf 2269 164c 1bb6 c8bf
00000550: 5b56 19d7 8f47 b73f da22 6131 f921 aebf
00000560: 34a6 d665 0640 b0bf da72 38bb a517 a43f
00000570: b45a d479 0d65 d23f 9ef8 9eb6 3df9 b7bf
00000580: 4e15 cc3d 489f ae3f 20db a3e6 4b0e b5bf
00000590: 28d3 246a 3e45 d03f ccb3 ed5d 70a3 b33f
000005a0: 2ece 51b6 07eb b4bf d8b3 f749 0d6e 413f
000005b0: 9ead 7415 6974 8d3f b7ba 1d77 556c ce3f
000005c0: 974e aa96 45bd b93f 8922 c391 85ba 8b3f
000005d0: 3726 354b f72f cb3f 84b0 ee43 632c a8bf
000005e0: 88e6 c8be 81c8 b7bf 70ec 87c2 92f0 c13f
000005f0: 5059 a391 bde9 d9bf 33fd 551b 5a7e 70bf
00000600: f2aa a5a0 8648 c63f bea2 f9d5 1131 d3bf
00000610: efda b085 0d27 b4bf 154a 4c80 df39 adbf
00000620: 0134 5903 6e20 b53f b0c6 d879 7109 c63f
00000630: 8f28 41d1 a33a b4bf 5b04 50dc ea38 b7bf
00000640: 3879 5bc7 4c05 af3f 1169 bf31 86d5 c73f
00000650: 13c6 eb98 c862 c4bf 752b b878 bcb9 c7bf
00000660: 1e3d 3ee1 5797 cc3f a810 636d be80 a53f
00000670: a204 ed10 86aa a2bf f1e6 f955 5ad6 a33f
00000680: 028c 7cd4 da9a c33f 4699 b667 a31b b43f
00000690: 4ea1 21d3 9ea6 c23f e1f0 30b6 d679 d23f
000006a0: c51c 55c5 7972 d13f a123 00a7 be37 c0bf
000006b0: de29 5380 ab87 b43f a0d1 272f ed0b d23f
000006c0: baf7 c199 2732 d43f 168b e9aa e436 afbf
000006d0: be35 88ab f85c d13f b514 2a4f d441 bf3f
000006e0: cb1f abda ec5e 923f 3e57 506f 5412 c73f
000006f0: 401e d0a6 f4d8 c73f d76c a27e b98c af3f
00000700: 6372 ac67 0b35 d1bf f021 66f4 30b2 d1bf
00000710: be35 fa28 c4f2 cf3f d8c3 e99f 1d72 c53f
00000720: c7c5 1be3 d490 b93f 3d5b 0230 f542 d0bf
00000730: f82b 32dc 52f8 a7bf ba3b bf39 f05d af3f
00000740: f16d 0568 5a71 cf3f 31c7 cc1b b79b dd3f
00000750: 4d08 4970 8e18 9dbf 3871 4b3e f141 a73f
00000760: 38c7 6ab6 723d b53f f74c c1d2 63a2 64bf
00000770: cd77 d1c7 4793 a83f d503 55e0 a672 c33f
00000780: adf8 c183 27ed d13f 0306 9b99 f1d5 c5bf
00000790: 0072 457c 5010 b4bf 6fd1 5af0 e220 ba3f
000007a0: 4c97 2419 b075 cd3f 0bf0 1dfa e42c a93f
000007b0: e59c b591 bd3d 59bf a016 31fa a040 abbf
000007c0: 4084 187f 9406 c73f c94f de55 b96c aa3f
000007d0: 9d1a 53c2 d3ea d33f af56 0b9c b6ed be3f
000007e0: 7ff9 717f daa2 d53f 1287 2469 3aad a5bf
000007f0: 078d a796 6cab aebf 9df2 8a80 7415 a13f
-0.08697138589254952 -0.12701856929166544 0.14081225282219603 -0.07908610184097065 0.17115722862190905 -0.010413732765614466 0.06153919442106194 -0.06891036981739716
-0.18767158676309253 0.008328471257117253 0.15157912390863418 0.26246245481239583 0.048026660328822156 0.44452347337387343 -0.10432312585330197 -0.014610727705060271
-0.24282978884228218 0.04414230356173956 -0.1825906064806171 -0.05020667776971497 0.1901496789789233 0.03900087207415303 0.1364806256458468 0.1602324045060133
0.15619071487723798 0.025558756837923607 0.10311102797101789 0.06209086552456367 0.21729847731732105 0.06688605572993743 -0.0025038354465785834 0.08520477052468121
-0.00311982637254707 0.09314613242361691 0.2767011835579901 0.29263052311670873 0.0639496362761104 0.016762859471545908 -0.04900269814056115 -0.2429605624954549
0.2644129657529755 0.12999155986917 0.08571044557502024 0.048401285234393 -0.11172026927839768 0.056905088950770163 -0.2075622106935612 -0.19643694098602008
0.014048660136773899 -0.1784151142761472 -0.05231416962639294 0.17056739134692114 0.04130144028177255 0.032900882620108284 0.1690590683603433 -0.0037233393477223687
0.01630535925019131 -0.075559377259704 0.06532346184691652 0.23789580536961485 0.12788960834850327 -0.012831891774826978 -0.022217387764480283 0.07665306301537207
-0.1776728087879391 0.014728849993519425 0.11349857769122311 -0.02768679191956753 -0.14394087157677474 -0.023916850008551413 0.0992571453193678 -0.08023643177239745
0.14309710211305424 -0.008040351242677818 0.0816506216184218 0.4333946067741036 0.09571892877877003 0.19985356836584345 0.23825872107013127 0.12856156476237382
-0.0565113097993634 -0.2875566453234266 0.12078787004974591 -0.15436043506563035 0.1854327128831011 0.21864480018575672 0.18370528825831917 0.04850215894545177
-0.02904149637222791 -0.14704306213920082 0.011624761086928526 0.30202418443333306 0.19851607482623088 0.14843146006694946 -0.031979471674352125 -0.1776788024578588
-0.18954441108068082 -0.049838297108209556 0.3522410456751188 -0.0455424412347483 0.27037004882375565 0.015541063138773821 0.015461039842849767 -0.08183555563186203
-0.10600295510828693 -0.06373845590612226 -0.018774799207156034 0.10469479310504545 -0.21889052422484848 -0.04699863195379205 -0.042292512045332804 0.18114038257468743
-0.12110520181901185 0.18691464991296183 0.05232452650762639 -0.029467524300996972 0.03234705075522629 -0.03444123186035552 0.0004169782563478883 -0.049777632831875473
-0.03373671610506278 0.05161983018993117 0.1265755150362664 0.058086756645813586 -0.017319837294358372 0.1907846651809962 -0.0574771235073535 0.003961373611280851
-0.19305553053384483 -0.0006370900815395472 -0.11925470698139354 0.08697050252823463 -0.3807094855667463 0.06542750264149669 0.26182091272540214 0.07103228807282938
0.09845097323840399 0.4420860788066408 0.12329196873076687 -0.047211342485102066 0.26406098451303756 -0.36613962269349504 0.07414701669009299 0.00955658592489884
0.029025762917199802 -0.20309513490667758 -0.0057712872222756405 -0.03978270487469623 -0.11082565910583124 -0.1656772670348653 -0.4030636927960249 0.07985812707149906
0.02695957866267282 -0.018363142976328538 -0.15718518943641013 -0.09904422891967392 0.5360215012614534 -0.06945708496094753 0.12278822886080144 0.11160387543346403
0.05546466769129316 0.1797638324559073 0.06410183419675 0.04632229182804162 0.2491811516550767 -0.03439642083506554 -0.13728101139954513 -0.08455703153907157
-0.3144038774503604 -0.1930574533005905 0.09093569756927293 -0.05885294654632896 -0.063476943838986 0.03924291525274777 0.2874177636853503 -0.09364686687965437
0.0598089766918216 -0.08224939709530732 0.25422630658731515 0.07671263020684121 -0.08171127511177964 0.0005319180381185796 0.014382191626814141 0.2376810866948824
0.10054430893279186 0.013539355765162202 0.21240130588766856 -0.04721365169766137 -0.09290324123221627 0.1401542138918077 -0.40489138815373327 -0.004026748637783672
0.17408831447695367 -0.29986997505197255 -0.07872089876114406 -0.057082161342027295 0.08252608854054701 0.17216318559217347 -0.07901977404358916 -0.0907122409698941
0.060587310157404095 0.1862037413510014 -0.15926463572354574 -0.18535571951391785 0.22336863039206717 0.041997862675573316 -0.03645724255194095 0.03874475764764707
0.15316329360311448 0.07854672700941476 0.14570985135220343 0.2886864451609324 0.2726120402407555 -0.1267011943275778 0.08019515879565328 0.2819779358390182
0.3155611993350892 -0.060965677130999804 0.2712995219343063 0.12209822590564808 0.017940235945189714 0.1802468818211142 0.18630846161998882 0.06162051840620968
-0.2688625824392032 -0.2765009295185612 0.24959613800858266 0.16754503544100774 0.0998662046875075 -0.254086777576436 -0.046816434268372065 0.06126356797141548
0.24564676360283458 0.46262910570941346 -0.0284139877351282 0.045424975256283806 0.08296887353460825 -0.002518839804943714 0.047998660222887325 0.15193639711108511
0.28009975306475604 -0.17059154510756977 -0.07837393793074199 0.1020643078616723 0.23015404918367677 0.049170642406323926 -0.0015405989896295988 -0.0532274537477353
0.17988830762718244 0.05161074803541472 0.31120771386160034 0.12081471738505443 0.3380647892553483 -0.042337251028824366 -0.05990161265415322 0.03336681431890052

lstm_W f8 [50, 200]
00000000: 0c98 cb1e 73b7 793f 28e8 6984 c348 ccbf
00000010: 31c4 819e 1687 af3f ef41 7204 18c8 a3bf
00000020: 796d 4e8e 7174 7b3f 5a5a ffa0 52ed e03f
00000030: 4222 c1a7 8e27 cc3f e7e6 ba55 4340 8fbf
00000040: 1e8c a638 aa38 a43f d958 91c9 c9a6 c33f
00000050: 7137 2974 fff8 c63f 032e 4c5c 3112 b33f
00000060: 03ce 7ea5 c1c2 d83f 48c1 469f dfcc c83f
00000070: 38d4 ccf3 3244 aebf 4be4 8889 39dc d33f
00000080: 27dc 6fee db82 c3bf 644b f204 f6cf acbf
00000090: 6953 905f 8373 c9bf 8d92 e0d2 7a05 ccbf
000000a0: 41e9 8168 01f6 c9bf dcb7 1c01 d222 c23f
000000b0: d2aa 4d1c ea3f c6bf 4e59 5480 196c ce3f
000000c0: bc8a 46eb d6f7 c0bf d0fa daac 91c8 c73f
000000d0: 5723 e131 0062 d23f 4dd4 9d94 5bfc b33f
000000e0: d80e 41a2 4277 cf3f 7930 a8b4 9824 c43f
000000f0: e9a1 2a78 cc3d b63f 5ae9 b132 4306 c8bf
00000100: 8d5d 9e76 37ea bb3f cbf6 0b27 ccbc d83f
00000110: d16e 34c6 0d26 ab3f e18b 9694 6489 ca3f
00000120: 75af aeb2 26b2 c63f 1a89 e105 c184 b63f
00000130: 8c8f d7f1 9d15 c9bf 0f15 7abd ce5a b63f
00000140: 3e95 af89 1c05 cabf 840d 66cb 48a7 d93f
00000150: 5172 deb6 7d7a cb3f 0ac1 d669 b7c0 b4bf
00000160: b7c6 7a07 0149 a5bf 17aa ade9 fbe5 913f
00000170: dc11 18ef abcd a9bf 6e5a 6a0a 0ef7 90bf
00000180: a26e 33be ff4e 58bf b91a 9dd6 899a d63f
00000190: ff99 077a 37fb bc3f 94b7 1c8c eda5 b23f
000001a0: 11c2 2255 797d 8abf 05a1 52c3 05da db3f
000001b0: d3fb 8375 e823 b0bf 9c82 5b6d fbec c1bf
000001c0: 3265 431b cc38 ad3f e377 423e 7920 b5bf
000001d0: 13f8 8090 034c a9bf 5947 7d5d 21e2 d43f
000001e0: 4e71 6607 335f d33f 8284 e191 a852 b83f
000001f0: dece c917 83d4 8d3f c54b 62e3 5c38 c2bf
00000200: d000 7210 6541 d0bf fab1 7fa3 b47d 85bf
00000210: a29c 9ad0 cab7 c43f 67bc a9a0 802f c03f
00000220: a7aa dd21 1c98 aa3f dba5 8a48 b1f6 bf3f
00000230: aa0d e42c 3ccb b0bf 80e5 6f20 a87c b7bf
00000240: e0e5 7213 d48b 94bf 490d 3e7f 2d13 b5bf
00000250: 5c1e 9e0e 67eb b53f e1b2 fbca d7c6 973f
00000260: 1cd0 4c07 5e15 c53f 019b a7f4 df96 a5bf
00000270: ff1c 4b5a 113d 6c3f 01ba 4b75 4d9d 95bf
00000280: 4720 b152 435e bd3f 4694 9415 e8ed afbf
00000290: a3c6 b8cf 5879 b7bf f336 e413 b3b0 a33f
000002a0: ede3 37e5 18a1 a3bf 2946 b2e4 43fc 983f
000002b0: fc47 9777 58d5 bfbf 925d 4b2f 97df 7d3f
000002c0: 4966 93de 3aeb 953f fd41 dfdf 9dd6 d1bf
000002d0: 06d4 0ed1 d2c2 b23f abc8 62d9 53c9 ac3f
000002e0: e5a4 ba1f c69b afbf 9ba0 ad13 328f d73f
000002f0: 7624 f6d3 9950 c0bf b20d 322b cf4a bd3f
00000300: c2c5 1531 24e0 a8bf d57d 48c2 070b d0bf
00000310: f205 2514 b3a0 c4bf 5e6a 4853 3edf c53f
00000320: fdbd 3fab bc95 d23f ae24 4ff9 721c 8ebf
00000330: 15c9 09e3 2e7e cf3f f2ea 1509 1b80 bf3f
00000340: 01a2 2437 8551 b83f 52c9 5cf9 fa4f a73f
00000350: c845 96f3 407b ca3f 50b2 305c b0b7 b63f
00000360: 3f97 0472 04f8 d13f eca3 7f1b ab5e c93f
00000370: d301 7b24 3af6 d13f f5b6 782f 6a75 df3f
00000380: c099 1e53 71fa d03f fb43 694f 1e21 c33f
00000390: 3344 fc5a 40a9 ba3f adf9 30bc 1adb b73f
000003a0: c6fb 222e c083 e13f 874b 3996 fc61 c33f
000003b0: abf3 a9ab 3064 ce3f 25cf f9c5 e8ab d23f
000003c0: 932c 936f f094 b1bf 60d6 c366 ee83 d23f
000003d0: 1df7 0702 f85b ba3f bb7f af0a 267c c53f
000003e0: 7e85 c648 6c1a c63f 5711 1dea 584a d73f
000003f0: e6c9 7984 5eff c13f aeac 84e3 d7b8 d43f
00000400: a141 3247 39d0 c73f faf6 2774 b472 45bf
00000410: 977d 932a d820 d03f 539e 6bdb 4dc1 b43f
00000420: 0e40 f13f 118b 99bf 59ef faa6 4307 c33f
00000430: 04d1 7901 f9bf 843f e8d9 4938 8b22 c93f
00000440: 0eff 8cea 7854 d43f 5d2f 372a fd07 bebf
00000450: b3f5 00da 59ab b7bf 8049 0466 856f b2bf
00000460: 8eae c611 0946 bd3f 7b95 aeec fd71 a83f
00000470: 631e 50af 7a24 c53f 9483 c0a2 85d1 c43f
00000480: ef4e 6afa 696b 873f 0969 478d 2bec ce3f
00000490: 8a3d 52bf 9f17 d3bf 5aca 254d 463e c2bf
000004a0: 6922 621c 7a5c d53f 4d97 f6ea 901a d53f
000004b0: 532f fcc3 bd7a b4bf 3234 0971 4e12 e1bf
000004c0: e0b4 5cd6 6923 ce3f 4d69 da0c ecb5 be3f
000004d0: 4a1f e57a 1f38 b23f 1f18 f61b 50dc c0bf
000004e0: b437 1489 bbd2 bc3f e409 757b 71ee c4bf
000004f0: 43be 16e0 bc65 bd3f 102f 0f30 0f35 c13f
00000500: 9e16 2832 6af6 87bf be93 3d71 356c acbf
00000510: 523e 651d 238d d03f acc7 57ac a846 b9bf
00000520: 6845 fb0b e7c2 d3bf f3eb 02df a38c c13f
00000530: 1309 fd8b a3fd b1bf 157e c64f 94fd c5bf
00000540: ef4f 0fed d21e bcbf c747 96e7 2277 b8bf
00000550: be3b d21b dbab 99bf 6afe 9c18 527d ae3f
00000560: b03a 1a37 04b9 ac3f 23e4 d1d8 a46b d0bf
00000570: 258f a085 91d1 ab3f d636 8636 0332 aabf
00000580: f5c7 dc3b 571b 94bf ab84 150a dfc5 b7bf
00000590: 13ba 509b b9d4 d43f a2dd 07a8 947b b5bf
000005a0: 0f87 6162 b93c d43f a566 c74b fffe ccbf
000005b0: 6cb6 07d8 cb9f ab3f d79d efa6 a487 953f
000005c0: f689 d4df 2b70 b63f 1b37 f559 7865 c63f
000005d0: 7249 21fd 474a b33f 0df6 43b2 66e7 a1bf
000005e0: 3489 6513 c06a b1bf 3a04 864f 2f2a c33f
000005f0: 142e 97dc 3856 43bf e9c2 e3c5 de25 a33f
00000600: 1417 2fd8 3d5c 533f d108 a131 7a85 ce3f
00000610: 62ad 237e a724 c9bf 9aff 64f8 ac77 b1bf
00000620: cc06 5eec 4a82 b2bf edf4 df29 0e8f aabf
00000630: e502 3a17 9ba5 a93f 1984 ebcb 9a94 9cbf
00000640: 1830 e41c fa98 8fbf 6049 4b66 8675 c63f
00000650: 2b11 bf12 ce48 553f c81a 3777 ca95 8bbf
00000660: 5014 f662 b3f4 ae3f f5ef 124e 4686 b1bf
00000670: 8c28 cec1 5364 bebf 0189 313b 0e96 a63f
00000680: 82c4 9569 a8c2 c1bf 1508 fdff efe7 c53f
00000690: f8f0 a3e5 536b c2bf 6795 a9cf 384c abbf
000006a0: 2c97 e9d1 6cf9 a8bf 2c90 c7f7 dcbb ce3f
000006b0: 5481 1922 e004 a93f ecdc 95aa 75f0 c2bf
000006c0: 898a 1490 fd07 b4bf ac1c 7708 db84 873f
000006d0: 97b6 8589 c914 9bbf ddce bf3e e4ee cabf
000006e0: f8e6 6516 37ef aebf dfb5 41eb 6d62 b9bf
000006f0: efa3 b776 f901 aabf 8c0e 2e46 bb67 cbbf
00000700: 4427 2675 c342 d1bf aa24 c194 7b8d d43f
00000710: 6447 1195 000d d3bf 5895 4963 ee4a d03f
00000720: bd6b bd39 a40a a2bf 1ea5 fefc c70b cdbf
00000730: 6898 d019 dcc6 a2bf 8c81 d835 0047 ae3f
00000740: 6cbc 841d d3f3 c73f 82d9 6fb3 09f8 b8bf
00000750: 4f93 4075 0ab5 d0bf 2402 2ac2 8673 babf
00000760: dbf8 bb85 b8ba a7bf f4bc 86af 37e6 b13f
00000770: 6985 3302 6dc1 c3bf c4ad e3f4 f4c6 b63f
00000780: 37f0 3df3 c074 aa3f 6448 446d 4fa2 b63f
00000790: b7b4 e6f4 cd30 af3f 300e a22b 1336 b53f
000007a0: ac93 d78b 6583 c2bf 7c5c b8f6 6d77 d13f
000007b0: c2dd 8480 d1f3 b7bf b6b4 8957 601b c0bf
000007c0: fd87 0cc0 3311 9c3f 8d00 9ea1 1231 d0bf
000007d0: fcfa bb3d f373 873f f89e f3ed 4a2f be3f
000007e0: 0185 ee04 c626 a2bf 3896 71bf 981c 973f
000007f0: 3c01 e428 ab0e 78bf b2bb b03e 7b99 a3bf
0.006278466881417099 -0.22097057309639578 0.06157751736544304 -0.03863596967960691 0.006702846124336908 0.5289700645906337 0.21995719138273456 -0.015259290746473876
0.03949481908355089 0.15352747289825322 0.17947381183551728 0.07449635032042327 0.38688698922780435 0.1937522437779171 -0.059114067326313025 0.31031645232321087
-0.1524310030215201 -0.05627411661512019 -0.19883768240165559 -0.21891722962131546 -0.20281999209312043 0.14168763212495505 -0.17382551557542186 0.2376739384278132
-0.1325634621435564 0.1858083814640481 0.2872314917663536 0.07806942346890473 0.24582703516545368 0.15736683674947807 0.08688047345879792 -0.18769111609783345
0.10904261251413612 0.38652328313024203 0.053024702496455973 0.2073178983237929 0.17731174206471292 0.08796316522196826 -0.1959721976155574 0.08732311368847355
-0.20328098986571236 0.40083522666119387 0.21467563084742605 -0.08106561979252916 -0.041572601473843056 0.01747888196715949 -0.050397274910242124 -0.016567439447124625
-0.0014836785783733171 0.3531822772824103 0.11320826272240224 0.07284435911853243 -0.012934635077130914 0.43518203806390005 -0.06304791325599916 -0.14004462089271363
0.05707395394137861 -0.0825267579079703 -0.049408065213796835 0.32630190019437105 0.3026855060832262 0.09501126824899767 0.01456549087854547 -0.14234505751355023
-0.2539913807486416 -0.010493670692050639 0.16185889421214933 0.12644965977549136 0.05194175637628478 0.12485797902140609 -0.06560112091033568 -0.09174586097642212
-0.020064653098165297 -0.08232387882713 0.0856232081115364 0.0232194631234276 0.16471457821319369 -0.04216670857913663 0.0034470881385889602 -0.02110787418762961
0.11471958893628297 -0.06236195815498795 -0.0916953570492987 0.03845748536887852 -0.038338449459793235 0.024399815400619005 -0.12434914512348877 0.00729331070461771
0.02140514358038662 -0.2787241636515601 0.07328527072861854 0.05622350720058596 -0.06173533570592741 0.36811496659948667 -0.12745974397356336 0.11442274860933457
-0.04858506297285771 -0.25067323658910584 -0.1611541603434002 0.17087534967943702 0.2903892204621739 -0.014702699883758132 0.24603830419398123 0.12304848644081881
0.09499390217082039 0.04553207677817518 0.2068864049329433 0.08874037028062642 0.28076277861179116 0.19820154993729433 0.2806535106901979 0.4915414298619532
0.26528580777303645 0.14944819333553014 0.10414507123302101 0.09318701834215544 0.5473328496080903 0.15142781577250394 0.23743255979561914 0.2917425092084492
-0.06867888187405162 0.2893024447979311 0.10296583222949747 0.16785121461634653 0.1726813655232426 0.3639128004326912 0.140605749783915 0.3237819406373984
0.18604198433287158 -0.0006545430299522419 0.2520046630652017 0.08107458693449958 -0.024944562461598756 0.1486591878254966 0.010131783826388581 0.1963666939588642
0.3176557817969162 -0.11730940132764318 -0.09245835850102573 -0.07201417675631738 0.11434990581499901 0.04774468912300286 0.16517575798228554 0.16264410445094468
0.011435344652717087 0.24158234022508676 -0.2983168953296277 -0.14252547041867808 0.3337693478756934 0.329746465164466 -0.07999788317482386 -0.5334846694692088
0.23545573202992554 0.11996341050909116 0.07116886854521201 -0.1317234169511616 0.11259052368788397 -0.16352671173269961 0.11483364554327928 0.1344317421593293
-0.01170046773496419 -0.055513067315394946 0.2586143290581947 -0.09873441894140339 -0.3087709061629398 0.13710449589947835 -0.07027647178350475 -0.17180112738877598
-0.10984533584206678 -0.09556787637691776 -0.025069640706131706 0.05954987097220228 0.05609906361234118 -0.25657006429497836 0.05433325535002912 -0.051162815480990595
-0.01963554671164754 -0.09286302562897457 0.32548370521081543 -0.08391694166481625 0.31620630843654934 -0.22653189849989022 0.053953523751130245 0.021025250138249376
0.08764909948926189 0.17497162239526962 0.07535219125683115 -0.03496857572643473 -0.06803513024855051 0.1497248781488752 -0.0005901124615603237 0.0373983017506186
0.0011816600751770089 0.2384484045342732 -0.19643109950207377 -0.06823235573119604 -0.07230060835538693 -0.05187267552535411 0.05009159716155923 -0.027910631843841658
-0.01542849922818594 0.17546157831982168 0.001299096339594528 -0.013469297183190135 0.06046066840193787 -0.06845511823752289 -0.11871837121558054 0.044113583303230904
-0.1387529864837554 0.17114067077096765 -0.14390038216504997 -0.05331590208951802 -0.04877796232612605 0.24010812853441743 0.0488653222680592 -0.14796324567189545
-0.07824692504486043 0.011483870693054087 -0.02644648458356488 -0.21041539253166422 -0.06041881702817692 -0.09915816300937007 -0.05079631399332373 -0.21410313536408798
-0.2696999210389672 0.3211354210548715 -0.2976685958611738 0.2545734376529558 -0.03523743824799606 -0.22692203381783654 -0.036673429633354016 0.059135443280186356
0.18712843839009297 -0.09753475790771485 -0.26104985666670627 -0.10332529297193865 -0.04634644157884945 0.06991909060774387 -0.154340387415725 0.08897334078544988
0.05167201012861294 0.08841415803570524 0.06091922392384091 0.08285636725673196 -0.14463490799167056 0.2729144009949278 -0.09356412303610909 -0.12583545946418945
0.027409370991456673 -0.2529951647084168 0.011451626130563046 0.11790912923208541 -0.03545206842614768 0.022570025143428846 -0.005873364060107907 -0.03828034534705384
